Namespace(cfg_file='config/extractor/train_extractor_vn_dgcnn.yml', use_sgd=True, no_cuda=False, eval=False, model_path=None)
Using GPU : 0 from 2 devices
VN_DGCNN_ORIG(
  (conv1): VNLinearLeakyReLU(
    (map_to_feat): Linear(in_features=2, out_features=21, bias=False)
    (batchnorm): VNBatchNorm(
      (bn): BatchNorm2d(21, eps=1e-05, momentum=0.1, affine=True, track_running_stats=True)
    )
    (map_to_dir): Linear(in_features=2, out_features=21, bias=False)
  )
  (conv2): VNLinearLeakyReLU(
    (map_to_feat): Linear(in_features=42, out_features=21, bias=False)
    (batchnorm): VNBatchNorm(
      (bn): BatchNorm2d(21, eps=1e-05, momentum=0.1, affine=True, track_running_stats=True)
    )
    (map_to_dir): Linear(in_features=42, out_features=21, bias=False)
  )
  (conv3): VNLinearLeakyReLU(
    (map_to_feat): Linear(in_features=42, out_features=42, bias=False)
    (batchnorm): VNBatchNorm(
      (bn): BatchNorm2d(42, eps=1e-05, momentum=0.1, affine=True, track_running_stats=True)
    )
    (map_to_dir): Linear(in_features=42, out_features=42, bias=False)
  )
  (conv4): VNLinearLeakyReLU(
    (map_to_feat): Linear(in_features=84, out_features=85, bias=False)
    (batchnorm): VNBatchNorm(
      (bn): BatchNorm2d(85, eps=1e-05, momentum=0.1, affine=True, track_running_stats=True)
    )
    (map_to_dir): Linear(in_features=84, out_features=85, bias=False)
  )
  (conv5): VNLinearLeakyReLU(
    (map_to_feat): Linear(in_features=169, out_features=341, bias=False)
    (batchnorm): VNBatchNorm(
      (bn): BatchNorm1d(341, eps=1e-05, momentum=0.1, affine=True, track_running_stats=True)
    )
    (map_to_dir): Linear(in_features=169, out_features=1, bias=False)
  )
  (std_feature): VNStdFeature(
    (vn1): VNLinearLeakyReLU(
      (map_to_feat): Linear(in_features=682, out_features=341, bias=False)
      (batchnorm): VNBatchNorm(
        (bn): BatchNorm1d(341, eps=1e-05, momentum=0.1, affine=True, track_running_stats=True)
      )
      (map_to_dir): Linear(in_features=682, out_features=341, bias=False)
    )
    (vn2): VNLinearLeakyReLU(
      (map_to_feat): Linear(in_features=341, out_features=170, bias=False)
      (batchnorm): VNBatchNorm(
        (bn): BatchNorm1d(170, eps=1e-05, momentum=0.1, affine=True, track_running_stats=True)
      )
      (map_to_dir): Linear(in_features=341, out_features=170, bias=False)
    )
    (vn_lin): Linear(in_features=170, out_features=3, bias=False)
  )
  (linear1): Linear(in_features=4092, out_features=512, bias=True)
  (bn1): BatchNorm1d(512, eps=1e-05, momentum=0.1, affine=True, track_running_stats=True)
  (dp1): Dropout(p=0.5, inplace=False)
  (linear2): Linear(in_features=512, out_features=256, bias=True)
  (bn2): BatchNorm1d(256, eps=1e-05, momentum=0.1, affine=True, track_running_stats=True)
  (dp2): Dropout(p=0.5, inplace=False)
  (linear3): Linear(in_features=256, out_features=40, bias=True)
)
NUMBER OF TRAINABLE PARAMS: 2899830
SGD (
Parameter Group 0
    dampening: 0
    differentiable: False
    foreach: None
    initial_lr: 0.1
    lr: 0.1
    maximize: False
    momentum: 0.9
    nesterov: False
    weight_decay: 0.0001
)
Train 0, loss: 3.623593, train acc: 0.117569, train avg acc: 0.050603
Test 0, loss: 3.334634, test acc: 0.126013, test avg acc: 0.077913
…
