Namespace(cfg_file='config/extractor/train_extractor_vn_pointnet.yml', use_sgd=True, no_cuda=False, eval=False, model_path=None)
Using GPU : 0 from 2 devices
VN_PointNet(
  (feat): PointNetEncoder(
    (conv_pos): VNLinearLeakyReLU(
      (map_to_feat): Linear(in_features=3, out_features=21, bias=False)
      (batchnorm): VNBatchNorm(
        (bn): BatchNorm2d(21, eps=1e-05, momentum=0.1, affine=True, track_running_stats=True)
      )
      (map_to_dir): Linear(in_features=3, out_features=21, bias=False)
    )
    (conv1): VNLinearLeakyReLU(
      (map_to_feat): Linear(in_features=21, out_features=21, bias=False)
      (batchnorm): VNBatchNorm(
        (bn): BatchNorm1d(21, eps=1e-05, momentum=0.1, affine=True, track_running_stats=True)
      )
      (map_to_dir): Linear(in_features=21, out_features=21, bias=False)
    )
    (conv2): VNLinearLeakyReLU(
      (map_to_feat): Linear(in_features=42, out_features=42, bias=False)
      (batchnorm): VNBatchNorm(
        (bn): BatchNorm1d(42, eps=1e-05, momentum=0.1, affine=True, track_running_stats=True)
      )
      (map_to_dir): Linear(in_features=42, out_features=42, bias=False)
    )
    (conv3): VNLinear(
      (map_to_feat): Linear(in_features=42, out_features=341, bias=False)
    )
    (bn3): VNBatchNorm(
      (bn): BatchNorm1d(341, eps=1e-05, momentum=0.1, affine=True, track_running_stats=True)
    )
    (std_feature): VNStdFeature(
      (vn1): VNLinearLeakyReLU(
        (map_to_feat): Linear(in_features=682, out_features=341, bias=False)
        (batchnorm): VNBatchNorm(
          (bn): BatchNorm1d(341, eps=1e-05, momentum=0.1, affine=True, track_running_stats=True)
        )
        (map_to_dir): Linear(in_features=682, out_features=341, bias=False)
      )
      (vn2): VNLinearLeakyReLU(
        (map_to_feat): Linear(in_features=341, out_features=170, bias=False)
        (batchnorm): VNBatchNorm(
          (bn): BatchNorm1d(170, eps=1e-05, momentum=0.1, affine=True, track_running_stats=True)
        )
        (map_to_dir): Linear(in_features=341, out_features=170, bias=False)
      )
      (vn_lin): Linear(in_features=170, out_features=3, bias=False)
    )
    (fstn): STNkd(
      (conv1): VNLinearLeakyReLU(
        (map_to_feat): Linear(in_features=21, out_features=21, bias=False)
        (batchnorm): VNBatchNorm(
          (bn): BatchNorm1d(21, eps=1e-05, momentum=0.1, affine=True, track_running_stats=True)
        )
        (map_to_dir): Linear(in_features=21, out_features=21, bias=False)
      )
      (conv2): VNLinearLeakyReLU(
        (map_to_feat): Linear(in_features=21, out_features=42, bias=False)
        (batchnorm): VNBatchNorm(
          (bn): BatchNorm1d(42, eps=1e-05, momentum=0.1, affine=True, track_running_stats=True)
        )
        (map_to_dir): Linear(in_features=21, out_features=42, bias=False)
      )
      (conv3): VNLinearLeakyReLU(
        (map_to_feat): Linear(in_features=42, out_features=341, bias=False)
        (batchnorm): VNBatchNorm(
          (bn): BatchNorm1d(341, eps=1e-05, momentum=0.1, affine=True, track_running_stats=True)
        )
        (map_to_dir): Linear(in_features=42, out_features=341, bias=False)
      )
      (fc1): VNLinearLeakyReLU(
        (map_to_feat): Linear(in_features=341, out_features=170, bias=False)
        (batchnorm): VNBatchNorm(
          (bn): BatchNorm1d(170, eps=1e-05, momentum=0.1, affine=True, track_running_stats=True)
        )
        (map_to_dir): Linear(in_features=341, out_features=170, bias=False)
      )
      (fc2): VNLinearLeakyReLU(
        (map_to_feat): Linear(in_features=170, out_features=85, bias=False)
        (batchnorm): VNBatchNorm(
          (bn): BatchNorm1d(85, eps=1e-05, momentum=0.1, affine=True, track_running_stats=True)
        )
        (map_to_dir): Linear(in_features=170, out_features=85, bias=False)
      )
      (fc3): VNLinear(
        (map_to_feat): Linear(in_features=85, out_features=21, bias=False)
      )
    )
  )
  (fc1): Linear(in_features=2046, out_features=512, bias=True)
  (fc2): Linear(in_features=512, out_features=256, bias=True)
  (fc3): Linear(in_features=256, out_features=40, bias=True)
  (dropout): Dropout(p=0.4, inplace=False)
  (bn1): BatchNorm1d(512, eps=1e-05, momentum=0.1, affine=True, track_running_stats=True)
  (bn2): BatchNorm1d(256, eps=1e-05, momentum=0.1, affine=True, track_running_stats=True)
  (relu): ReLU()
)
NUMBER OF TRAINABLE PARAMS: 1972745
SGD (
Parameter Group 0
    dampening: 0
    differentiable: False
    foreach: None
    initial_lr: 0.1
    lr: 0.1
    maximize: False
    momentum: 0.9
    nesterov: False
    weight_decay: 0.0001
)
Train 0, loss: 3.547110, train acc: 0.109833, train avg acc: 0.046812
Test 0, loss: 3.521746, test acc: 0.092788, test avg acc: 0.057250
…
